model.tflite (tflite, 30944 bytes, 6 tensors)

sequential_1/dense_5/BiasAdd/ReadVariableOp f4 [41]
0	0x3d2dbe19	0.04241762
1	0x3d1f1deb	0.03884689
2	0x3b399b36	0.0028321273
3	0x3d737152	0.059434243
4	0x3d407100	0.046982765
5	0x3a2784b0	0.00063903164
6	0xbae7635d	-0.0017653514
7	0xbd628044	-0.055298105
8	0xba3ef91e	-0.0007285046
9	0xbc1890eb	-0.009311895
10	0xbda9ca43	-0.082905315
11	0xbd798e58	-0.060926765
12	0xbd06254b	-0.03275041
13	0xbc7cc2b9	-0.015427285
14	0x3cba6d5b	0.022757223
15	0xbcf0f8d0	-0.029415518
16	0x3db88870	0.090103984
17	0x3dddd657	0.10831898
18	0xbcda33b4	-0.026635982
19	0xbca28844	-0.019840367
20	0x3c9ea510	0.019365817
21	0xbd383a5f	-0.044977542
22	0xbd93db3b	-0.07219549
23	0x3d68301a	0.0566865
24	0xbcae248c	-0.021257661
25	0xbc4aed66	-0.012385702
26	0xbcff7ab8	-0.031186447
27	0x3c7fd8d4	0.015615661
28	0xbd9df3de	-0.077125296
29	0x3d1594af	0.03651875
30	0xbde41c82	-0.1113825
31	0xbbae6662	-0.0053222636
32	0x3dd96c94	0.10616413
33	0x3d1402ae	0.036135368
34	0xbd450083	-0.04809619
35	0xbb527e85	-0.0032118869
36	0xbdb037f3	-0.086044215
37	0xbd5c9b47	-0.05385902
38	0x3d83004c	0.06396541
39	0xbd168b2c	-0.03675382
40	0x3b076962	0.0020662178

sequential_1/dense_4/BiasAdd/ReadVariableOp f4 [64]
0	0x3cc0c2a2	0.023530308
1	0x3d8f8d60	0.07009387
2	0x3d57e16e	0.05270522
3	0x3db5d925	0.08879308
4	0x3d72ea9d	0.059305776
5	0x3e136c3c	0.14396757
6	0x3db33ecf	0.08752214
7	0xbc4ea551	-0.012612657
8	0x3d4cde6d	0.05001681
9	0x3cc29aa2	0.023755375
10	0x3dd2cb4f	0.10292684
11	0x3d072c9d	0.03300153
12	0x3c9a679c	0.018848233
13	0x3dbb892f	0.09157025
14	0x3bbf720b	0.0058424524
15	0xbd229a90	-0.039698184
16	0x3dcc2457	0.09967869
17	0x3d91f537	0.07126849
18	0xbc35f93e	-0.011106787
19	0x3d1bc785	0.038032074
20	0x3d1c9a9c	0.038233384
21	0x3d669a7b	0.056299668
22	0x3d0e9f0a	0.03481964
23	0x3c8474bd	0.016168946
24	0x3d8259e2	0.063648
25	0x3d84ec80	0.06490421
26	0x38c0fa6f	9.20192e-05
27	0x3d92d6c1	0.07169867
28	0x3dc6256d	0.09675107
29	0x3d5d95bd	0.05409788
30	0x3e0de837	0.13858114
31	0xbd27a9bb	-0.040933352
32	0x3d2af6ab	0.041739147
33	0x3c19a5ad	0.009377879
34	0xbc7a4439	-0.015275055
35	0x3b8d0917	0.004304062
36	0x3d333ba6	0.043758057
37	0xbcdb4985	-0.026768455
38	0x3e2b09d4	0.16702968
39	0x3d5e2505	0.054234523
40	0xbb7a7811	-0.0038218538
41	0x3d8cf11a	0.06881924
42	0x3dbc856c	0.09205136
43	0x3d5e4d7d	0.054273117
44	0x3d8ca68e	0.06867705
45	0x3cdd2a2e	0.026997652
46	0x3cd1b809	0.02560045
47	0x3d678c28	0.056530148
48	0x3d4ba750	0.04972011
49	0x3e0249eb	0.1272351
50	0x3da93897	0.08262747
51	0xbc21f12d	-0.009884161
52	0x3e0a4d02	0.13505939
53	0x3dcfc508	0.101450026
54	0x3dd1146e	0.10208975
55	0x3d4fa404	0.050693527
56	0x3dadf3bb	0.084937535
57	0x3d0304a6	0.031986855
58	0x3cd47865	0.025936315
59	0x3da310ec	0.07962212
60	0x3e0b5426	0.13606319
61	0x3d11b853	0.035576176
62	0x3da0dfd4	0.07855192
63	0x3dc07cff	0.09398841

sequential_1/dense_3/BiasAdd/ReadVariableOp f4 [128]
0	0x3e7f71f4	0.24945813
1	0x3e640276	0.22266564
2	0x3e197fe3	0.14990191
3	0x3e357257	0.17719398
4	0x3e0d1af2	0.1377981
5	0x3e064fa5	0.1311632
6	0x3dc3eb92	0.09566416
7	0x3dc3dfc2	0.09564163
8	0x3e454efa	0.19268408
9	0x3e6226d2	0.22085121
10	0x3d8c8a06	0.068622634
11	0x3e4633da	0.19355717
12	0x3e55c97d	0.20877643
13	0x3e751d7f	0.23937033
14	0x3e51a8bd	0.20474525
15	0x3d25e099	0.040497396
16	0x3dab1294	0.08353153
17	0x3de84a0c	0.11342248
18	0x3e0a3ab6	0.13498959
19	0x3e4aee84	0.19817549
20	0x3e4d9413	0.20076017
21	0x3e16fc8a	0.14744774
22	0x3dbdaf4e	0.09261952
23	0x3d92c026	0.07165556
24	0x3d11fa93	0.035639357
25	0x3e40c862	0.1882644
26	0x3e37c333	0.17945556
27	0x3e77915a	0.24176541
28	0x3e0dcce4	0.13847691
29	0x3e727239	0.23676385
30	0x3e0df115	0.13861497
31	0x3dc56789	0.096388884
32	0x3e3cf430	0.18452525
33	0x3e57e6e1	0.21084167
34	0x3e81f1d4	0.25379813
35	0x3e1b21ff	0.15149687
36	0x3de92c0e	0.11385356
37	0x3e7bb171	0.24579407
38	0x3dc3dd4b	0.09563693
39	0x3e226165	0.15857466
40	0x3e1337ce	0.14376757
41	0x3e85b83e	0.26117128
42	0x3e8b3d27	0.27195093
43	0x3d8d96a4	0.06913498
44	0x3dbfd5e2	0.09366967
45	0x3ded00be	0.11572407
46	0x3dc38121	0.09546114
47	0x3e28b886	0.1647664
48	0x3e32af5c	0.17449707
49	0x3e1d16e1	0.15340759
50	0x3e907343	0.28212938
51	0x3e01ddc2	0.1268225
52	0x3d9d1f5d	0.07671998
53	0x3e2a60e0	0.16638517
54	0x3d4a6d63	0.049420726
55	0x3dc90b7d	0.09816644
56	0x3d8c763c	0.06858489
57	0x3de606a5	0.11231736
58	0x3e11d715	0.14242204
59	0x3e41baa9	0.18918861
60	0x3e34fbe5	0.17674215
61	0x3e2a9332	0.16657713
62	0x3e440851	0.19143797
63	0x3e205dc2	0.15660766
64	0x3e34d087	0.17657672
65	0x3e401840	0.1875925
66	0x3e201aa1	0.15635158
67	0x3e34045c	0.17579788
68	0x3e32cf7d	0.17461963
69	0x3d26d1c0	0.040727377
70	0x3e205f75	0.15661414
71	0x3e591d23	0.21202521
72	0x3db93594	0.09043422
73	0x3db58ce5	0.08864764
74	0x3e4c46db	0.19948904
75	0x3da2843b	0.07935377
76	0x3e188589	0.1489469
77	0x3e0e0041	0.13867284
78	0x3d3e703d	0.046493758
79	0x3e3ce751	0.18447615
80	0x3d8dedc7	0.06930118
81	0x3d760656	0.060064636
82	0x3d9db04e	0.07699643
83	0x3dfffa6c	0.12498936
84	0x3e13cc36	0.14433369
85	0x3e1b4d77	0.15166269
86	0x3dbb9c15	0.0916063
87	0x3e2203b2	0.15821722
88	0x3e3b6e77	0.18303858
89	0x3e05a63b	0.13051693
90	0x3e493763	0.19650035
91	0x3e7c793c	0.24655622
92	0x3e51da9b	0.20493548
93	0x3da92277	0.08258527
94	0x3e0abc21	0.13548328
95	0x3e44a8df	0.19205044
96	0x3e78ce9c	0.24297565
97	0x3d2cda4f	0.042200383
98	0x3df13530	0.11777723
99	0x3deecfed	0.116607524
100	0x3e5d4272	0.21607378
101	0x3e34d49a	0.17659226
102	0x3e4d64c3	0.20057969
103	0x3e820fb0	0.25402594
104	0x3e6ff557	0.23433433
105	0x3e40aca8	0.18815863
106	0x3c268835	0.01016431
107	0x3dcef599	0.10105438
108	0x3e859ee2	0.2609778
109	0x3dd2f910	0.10301411
110	0x3e252202	0.16126254
111	0x3e64dbaf	0.22349428
112	0x3e3f96cb	0.18709867
113	0x3de919d6	0.11381881
114	0x3e34fc3f	0.17674349
115	0x3d926401	0.071479805
116	0x3df08833	0.11744728
117	0x3e13708b	0.143984
118	0x3e43a384	0.19105345
119	0x3e611b10	0.2198298
120	0x3d9d6008	0.07684332
121	0x3d7e572d	0.062094856
122	0x3e2f01d1	0.17090537
123	0x3dc34bf5	0.09535972
124	0x3e278950	0.16360974
125	0x3e7756a8	0.2415415
126	0x3da38348	0.07984024
127	0x3e80edc0	0.2518139

sequential_1/dense_3/MatMul i1 [128, 132] scale=0.0038873896 zero_point=0
0	0xe6	-0.101072125
1	0xc5	-0.22935599
2	0xfe	-0.007774779
3	0x58	0.34209028
4	0x58	0.34209028
5	0xf8	-0.031099116
6	0x94	-0.41983807
7	0xda	-0.1477208
8	0xfd	-0.011662168
9	0x08	0.031099116
10	0xde	-0.13217124
11	0xee	-0.069973014
12	0x34	0.20214425
13	0xd5	-0.16715775
14	0xf6	-0.038873896
15	0xd9	-0.1516082
16	0x34	0.20214425
17	0xe8	-0.09329735
18	0xe9	-0.08940996
19	0xd6	-0.16327035
20	0xe6	-0.101072125
21	0xd2	-0.17881992
22	0x12	0.069973014
23	0xd7	-0.15938297
24	0xb6	-0.28766683
25	0xeb	-0.08163518
26	0xe8	-0.09329735
27	0x1e	0.11662169
28	0x03	0.011662168
29	0xf6	-0.038873896
30	0x34	0.20214425
31	0x50	0.31099117
32	0xff	-0.0038873896
33	0x97	-0.40817592
34	0x17	0.08940996
35	0x3e	0.24101815
36	0xee	-0.069973014
37	0xeb	-0.08163518
38	0x4b	0.2915542
39	0xeb	-0.08163518
40	0xd8	-0.15549558
41	0xd1	-0.18270731
42	0xda	-0.1477208
43	0x34	0.20214425
44	0xda	-0.1477208
45	0xfc	-0.015549558
46	0x08	0.031099116
47	0xdd	-0.13605863
48	0xdc	-0.13994603
49	0x1a	0.101072125
50	0xdf	-0.12828386
51	0x00	0.0
52	0x0c	0.046648674
53	0xe9	-0.08940996
54	0xdb	-0.14383341
55	0xdd	-0.13605863
56	0x25	0.14383341
57	0xdc	-0.13994603
58	0xfc	-0.015549558
59	0x0b	0.042761285
60	0x25	0.14383341
61	0x2f	0.18270731
62	0x13	0.0738604
63	0xcf	-0.1904821
64	0x2e	0.17881992
65	0xff	-0.0038873896
66	0x09	0.034986507
67	0xf5	-0.042761285
68	0xf9	-0.027211728
69	0xda	-0.1477208
70	0x05	0.019436948
71	0x12	0.069973014
72	0xe1	-0.12050907
73	0x15	0.08163518
74	0x13	0.0738604
75	0xdc	-0.13994603
76	0x21	0.12828386
77	0x04	0.015549558
78	0xde	-0.13217124
79	0xf6	-0.038873896
80	0x45	0.26822987
81	0x3c	0.23324338
82	0x2c	0.17104514
83	0x47	0.27600467
84	0x0d	0.050536063
85	0x1d	0.112734295
86	0x01	0.0038873896
87	0x40	0.24879293
88	0xea	-0.08552257
89	0x50	0.31099117
90	0x32	0.19436948
91	0x59	0.34597766
92	0x32	0.19436948
93	0xfa	-0.023324337
94	0x19	0.09718474
95	0xf9	-0.027211728
96	0x03	0.011662168
97	0xcd	-0.19825687
98	0x5c	0.35763985
99	0xe8	-0.09329735
100	0x0c	0.046648674
101	0xe5	-0.10495952
102	0xde	-0.13217124
103	0x20	0.124396466
104	0xff	-0.0038873896
105	0xfa	-0.023324337
106	0x26	0.1477208
107	0xc9	-0.21380642
108	0x14	0.07774779
109	0x65	0.39262635
110	0x39	0.2215812
111	0x14	0.07774779
112	0xdc	-0.13994603
113	0xce	-0.19436948
114	0x15	0.08163518
115	0xf8	-0.031099116
116	0xf6	-0.038873896
117	0xd5	-0.16715775
118	0xe8	-0.09329735
119	0x1b	0.10495952
120	0x2e	0.17881992
121	0x0b	0.042761285
122	0xf2	-0.054423455
123	0x12	0.069973014
124	0xdd	-0.13605863
125	0x18	0.09329735
126	0x17	0.08940996
127	0xee	-0.069973014
128	0xdd	-0.13605863
129	0xdc	-0.13994603
130	0x0a	0.038873896
131	0x08	0.031099116
132	0x39	0.2215812
133	0x38	0.21769382
134	0x20	0.124396466
135	0xf5	-0.042761285
136	0x01	0.0038873896
137	0xf3	-0.050536063
138	0xd4	-0.17104514
139	0xc9	-0.21380642
140	0x36	0.20991904
141	0xff	-0.0038873896
142	0x5a	0.34986505
143	0x04	0.015549558
144	0x02	0.007774779
145	0xf0	-0.062198233
146	0x00	0.0
147	0xeb	-0.08163518
148	0xf7	-0.034986507
149	0xf1	-0.058310844
150	0xe7	-0.09718474
151	0x0f	0.058310844
152	0x02	0.007774779
153	0x18	0.09329735
154	0x24	0.13994603
155	0x1b	0.10495952
156	0xd7	-0.15938297
157	0x2c	0.17104514
158	0xdb	-0.14383341
159	0xd0	-0.1865947
160	0xc4	-0.23324338
161	0xe6	-0.101072125
162	0xf6	-0.038873896
163	0x20	0.124396466
164	0x17	0.08940996
165	0xb6	-0.28766683
166	0xeb	-0.08163518
167	0x02	0.007774779
168	0xd4	-0.17104514
169	0xe1	-0.12050907
170	0xd2	-0.17881992
171	0x01	0.0038873896
172	0xcb	-0.20603165
173	0x34	0.20214425
174	0xc1	-0.24490555
175	0x1a	0.101072125
176	0xd6	-0.16327035
177	0xfa	-0.023324337
178	0x45	0.26822987
179	0x52	0.31876594
180	0x23	0.13605863
181	0x11	0.06608562
182	0x17	0.08940996
183	0xfd	-0.011662168
184	0x0d	0.050536063
185	0x0a	0.038873896
186	0xe4	-0.10884691
187	0x05	0.019436948
188	0xea	-0.08552257
189	0xf3	-0.050536063
190	0xd9	-0.1516082
191	0x08	0.031099116
192	0xec	-0.07774779
193	0xec	-0.07774779
194	0x03	0.011662168
195	0xf5	-0.042761285
196	0xcc	-0.20214425
197	0x2e	0.17881992
198	0x4d	0.29932898
199	0x28	0.15549558
200	0x30	0.1865947
201	0x2a	0.16327035
202	0xf7	-0.034986507
203	0xe0	-0.124396466
204	0x17	0.08940996
205	0x11	0.06608562
206	0xff	-0.0038873896
207	0x45	0.26822987
208	0xfd	-0.011662168
209	0xf1	-0.058310844
210	0xdc	-0.13994603
211	0x07	0.027211728
212	0xe6	-0.101072125
213	0x22	0.13217124
214	0xf1	-0.058310844
215	0xc1	-0.24490555
216	0x15	0.08163518
217	0xeb	-0.08163518
218	0x3c	0.23324338
219	0x38	0.21769382
220	0xfa	-0.023324337
221	0x50	0.31099117
222	0x1e	0.11662169
223	0x2a	0.16327035
224	0xdb	-0.14383341
225	0xe2	-0.11662169
226	0xcb	-0.20603165
227	0x3d	0.23713076
228	0xfd	-0.011662168
229	0xe4	-0.10884691
230	0x0d	0.050536063
231	0x0a	0.038873896
232	0xe4	-0.10884691
233	0xd6	-0.16327035
234	0x31	0.1904821
235	0xce	-0.19436948
236	0xf3	-0.050536063
237	0x20	0.124396466
238	0x00	0.0
239	0xdb	-0.14383341
240	0xe9	-0.08940996
241	0xe2	-0.11662169
242	0x11	0.06608562
243	0xbd	-0.2604551
244	0xd4	-0.17104514
245	0xe6	-0.101072125
246	0xe2	-0.11662169
247	0x46	0.27211726
248	0x26	0.1477208
249	0x14	0.07774779
250	0x23	0.13605863
251	0x48	0.27989206
252	0xf3	-0.050536063
253	0xf2	-0.054423455
254	0x5c	0.35763985
255	0x34	0.20214425

sequential_1/dense_4/MatMul i1 [64, 128] scale=0.005025882 zero_point=0
0	0x01	0.005025882
1	0x05	0.02512941
2	0x12	0.09046587
3	0x0d	0.065336466
4	0x3e	0.31160468
5	0x00	0.0
6	0x38	0.28144938
7	0xe3	-0.14575057
8	0x02	0.010051764
9	0xf8	-0.040207054
10	0x23	0.17590587
11	0xcd	-0.25631997
12	0xe7	-0.12564704
13	0xf0	-0.08041411
14	0x51	0.40709642
15	0x0b	0.0552847
16	0x4b	0.37694114
17	0x16	0.1105694
18	0x00	0.0
19	0xdf	-0.1658541
20	0x0b	0.0552847
21	0x21	0.1658541
22	0x22	0.17087997
23	0x13	0.09549175
24	0xfa	-0.03015529
25	0x4b	0.37694114
26	0xf2	-0.070362344
27	0x11	0.08543999
28	0x2f	0.23621644
29	0xd4	-0.2211388
30	0xbf	-0.32668233
31	0x0b	0.0552847
32	0x11	0.08543999
33	0xe5	-0.13569881
34	0x32	0.25129408
35	0xd0	-0.24124232
36	0xfd	-0.015077645
37	0xec	-0.10051764
38	0x22	0.17087997
39	0xcc	-0.26134586
40	0xd2	-0.23119056
41	0xf8	-0.040207054
42	0x0a	0.05025882
43	0xfc	-0.020103527
44	0x07	0.035181172
45	0xf2	-0.070362344
46	0x05	0.02512941
47	0x02	0.010051764
48	0x41	0.32668233
49	0xef	-0.08543999
50	0xc0	-0.32165644
51	0xe1	-0.15580234
52	0x23	0.17590587
53	0xd3	-0.22616468
54	0x39	0.28647527
55	0xec	-0.10051764
56	0x1a	0.13067293
57	0x01	0.005025882
58	0x2f	0.23621644
59	0xdc	-0.18093175
60	0xd6	-0.21108703
61	0xee	-0.09046587
62	0x07	0.035181172
63	0x19	0.12564704
64	0xfb	-0.02512941
65	0x47	0.3568376
66	0xfe	-0.010051764
67	0x12	0.09046587
68	0xdc	-0.18093175
69	0x0c	0.06031058
70	0x31	0.24626821
71	0x05	0.02512941
72	0x1a	0.13067293
73	0x2f	0.23621644
74	0x0e	0.070362344
75	0x1f	0.15580234
76	0x0f	0.07538823
77	0xe1	-0.15580234
78	0x17	0.11559528
79	0xd5	-0.21611291
80	0x31	0.24626821
81	0x39	0.28647527
82	0x20	0.16082822
83	0x31	0.24626821
84	0xdb	-0.18595763
85	0x1c	0.14072469
86	0xe5	-0.13569881
87	0x18	0.12062116
88	0x1f	0.15580234
89	0xf1	-0.07538823
90	0xcf	-0.24626821
91	0x25	0.18595763
92	0xb4	-0.381967
93	0xfa	-0.03015529
94	0xfa	-0.03015529
95	0xe9	-0.11559528
96	0x2c	0.2211388
97	0xf4	-0.06031058
98	0xde	-0.17087997
99	0xee	-0.09046587
100	0xcf	-0.24626821
101	0x3b	0.29652703
102	0xe3	-0.14575057
103	0x16	0.1105694
104	0xca	-0.27139762
105	0x3a	0.29150113
106	0x1f	0.15580234
107	0xf9	-0.035181172
108	0xbc	-0.34175995
109	0x2f	0.23621644
110	0x4c	0.381967
111	0x22	0.17087997
112	0xef	-0.08543999
113	0x0c	0.06031058
114	0xf7	-0.045232937
115	0xfd	-0.015077645
116	0x45	0.34678584
117	0x38	0.28144938
118	0x13	0.09549175
119	0x24	0.18093175
120	0xed	-0.09549175
121	0xeb	-0.10554352
122	0x25	0.18595763
123	0x30	0.24124232
124	0xe8	-0.12062116
125	0x16	0.1105694
126	0x33	0.25631997
127	0xeb	-0.10554352
128	0x26	0.1909835
129	0x2f	0.23621644
130	0x07	0.035181172
131	0xc3	-0.3065788
132	0x42	0.3317082
133	0x0a	0.05025882
134	0x16	0.1105694
135	0xf9	-0.035181172
136	0xf0	-0.08041411
137	0x0a	0.05025882
138	0xea	-0.1105694
139	0x27	0.1960094
140	0x05	0.02512941
141	0x24	0.18093175
142	0xec	-0.10051764
143	0x40	0.32165644
144	0x4e	0.3920188
145	0x3a	0.29150113
146	0xf6	-0.05025882
147	0xc6	-0.29150113
148	0x02	0.010051764
149	0xd8	-0.20103528
150	0x02	0.010051764
151	0xe5	-0.13569881
152	0x21	0.1658541
153	0xfb	-0.02512941
154	0x3a	0.29150113
155	0x0e	0.070362344
156	0x1b	0.13569881
157	0x08	0.040207054
158	0xf9	-0.035181172
159	0x1c	0.14072469
160	0x2e	0.23119056
161	0xf2	-0.070362344
162	0xec	-0.10051764
163	0xec	-0.10051764
164	0x45	0.34678584
165	0x31	0.24626821
166	0x0f	0.07538823
167	0x3d	0.3065788
168	0xdf	-0.1658541
169	0x1d	0.14575057
170	0x0d	0.065336466
171	0x02	0.010051764
172	0xde	-0.17087997
173	0x00	0.0
174	0xd1	-0.23621644
175	0xc6	-0.29150113
176	0xf3	-0.065336466
177	0xd6	-0.21108703
178	0x2e	0.23119056
179	0xe6	-0.13067293
180	0xf6	-0.05025882
181	0x04	0.020103527
182	0xc3	-0.3065788
183	0x27	0.1960094
184	0xf1	-0.07538823
185	0xf6	-0.05025882
186	0xb5	-0.37694114
187	0x0f	0.07538823
188	0x21	0.1658541
189	0x36	0.27139762
190	0x35	0.26637173
191	0x28	0.20103528
192	0x47	0.3568376
193	0x16	0.1105694
194	0x34	0.26134586
195	0x17	0.11559528
196	0x11	0.08543999
197	0x14	0.10051764
198	0xdf	-0.1658541
199	0xe1	-0.15580234
200	0xbd	-0.3367341
201	0xd5	-0.21611291
202	0x10	0.08041411
203	0xe3	-0.14575057
204	0xfa	-0.03015529
205	0x3f	0.31663054
206	0x4a	0.37191525
207	0xe0	-0.16082822
208	0xef	-0.08543999
209	0xf0	-0.08041411
210	0xdc	-0.18093175
211	0x16	0.1105694
212	0xf7	-0.045232937
213	0x0e	0.070362344
214	0x4c	0.381967
215	0xfd	-0.015077645
216	0x21	0.1658541
217	0x3c	0.30155292
218	0xcd	-0.25631997
219	0x01	0.005025882
220	0xf0	-0.08041411
221	0xbd	-0.3367341
222	0xc6	-0.29150113
223	0xd3	-0.22616468
224	0x07	0.035181172
225	0xd6	-0.21108703
226	0xeb	-0.10554352
227	0x27	0.1960094
228	0xf2	-0.070362344
229	0xea	-0.1105694
230	0x46	0.35181174
231	0x02	0.010051764
232	0x30	0.24124232
233	0x58	0.4422776
234	0xdf	-0.1658541
235	0x43	0.3367341
236	0xd8	-0.20103528
237	0xf6	-0.05025882
238	0xee	-0.09046587
239	0xe5	-0.13569881
240	0x25	0.18595763
241	0xfb	-0.02512941
242	0xc4	-0.30155292
243	0x0b	0.0552847
244	0xcf	-0.24626821
245	0xe6	-0.13067293
246	0xe4	-0.14072469
247	0x23	0.17590587
248	0x00	0.0
249	0xe5	-0.13569881
250	0x04	0.020103527
251	0x04	0.020103527
252	0xf5	-0.0552847
253	0x22	0.17087997
254	0x47	0.3568376
255	0x33	0.25631997

sequential_1/dense_5/MatMul i1 [41, 64] scale=0.0068247723 zero_point=0
0	0xb0	-0.54598176
1	0xa9	-0.5937552
2	0x27	0.26616612
3	0xde	-0.23204225
4	0x0f	0.10237159
5	0xc5	-0.40266156
6	0x22	0.23204225
7	0xee	-0.1228459
8	0xc0	-0.43678543
9	0xea	-0.150145
10	0x22	0.23204225
11	0xd6	-0.28664044
12	0xb6	-0.50503314
13	0xe7	-0.17061931
14	0x0a	0.06824772
15	0xb0	-0.54598176
16	0x2b	0.2934652
17	0x21	0.22521749
18	0x19	0.17061931
19	0xbb	-0.4709093
20	0x25	0.25251657
21	0xd7	-0.27981567
22	0xd8	-0.27299088
23	0x1f	0.21156794
24	0x03	0.020474317
25	0x30	0.32758906
26	0xaa	-0.5869304
27	0x15	0.14332022
28	0x14	0.13649544
29	0x17	0.15696977
30	0xf5	-0.0750725
31	0xfd	-0.020474317
32	0xc3	-0.41631112
33	0xe0	-0.21839271
34	0xc9	-0.3753625
35	0xef	-0.11602113
36	0xec	-0.13649544
37	0xc0	-0.43678543
38	0x1a	0.17744409
39	0x19	0.17061931
40	0xd4	-0.30029
41	0x2c	0.30029
42	0x17	0.15696977
43	0xfc	-0.02729909
44	0x05	0.03412386
45	0xb0	-0.54598176
46	0xb2	-0.53233224
47	0x2d	0.30711475
48	0xe3	-0.1979184
49	0x06	0.040948633
50	0x06	0.040948633
51	0xb6	-0.50503314
52	0xc9	-0.3753625
53	0xe0	-0.21839271
54	0x21	0.22521749
55	0x2c	0.30029
56	0x0d	0.08872204
57	0xbe	-0.45043498
58	0xf2	-0.09554681
59	0xb7	-0.49820837
60	0x01	0.0068247723
61	0xed	-0.12967068
62	0xf8	-0.05459818
63	0x03	0.020474317
64	0x11	0.11602113
65	0x03	0.020474317
66	0xa6	-0.6142295
67	0xbe	-0.45043498
68	0xfe	-0.013649545
69	0x28	0.27299088
70	0x06	0.040948633
71	0x02	0.013649545
72	0xf7	-0.06142295
73	0x19	0.17061931
74	0x17	0.15696977
75	0xe6	-0.17744409
76	0xe0	-0.21839271
77	0x0b	0.0750725
78	0x14	0.13649544
79	0x0d	0.08872204
80	0xea	-0.150145
81	0xb9	-0.48455885
82	0xb5	-0.5118579
83	0x1f	0.21156794
84	0x27	0.26616612
85	0x22	0.23204225
86	0xcf	-0.33441386
87	0xe8	-0.16379453
88	0x13	0.12967068
89	0xf5	-0.0750725
90	0x1d	0.1979184
91	0xb3	-0.52550745
92	0x1e	0.20474318
93	0xb8	-0.4913836
94	0xac	-0.5732809
95	0xa6	-0.6142295
96	0xcd	-0.34806338
97	0xc3	-0.41631112
98	0x15	0.14332022
99	0xc5	-0.40266156
100	0x19	0.17061931
101	0xc1	-0.42996067
102	0xba	-0.47773406
103	0x26	0.25934136
104	0x0a	0.06824772
105	0xdd	-0.23886703
106	0xb6	-0.50503314
107	0x00	0.0
108	0x28	0.27299088
109	0x1c	0.19109362
110	0x15	0.14332022
111	0xcb	-0.36171293
112	0xdb	-0.25251657
113	0xeb	-0.14332022
114	0xb0	-0.54598176
115	0xb2	-0.53233224
116	0x0c	0.081897266
117	0xfa	-0.040948633
118	0x0d	0.08872204
119	0xdf	-0.22521749
120	0x12	0.1228459
121	0x15	0.14332022
122	0x25	0.25251657
123	0xaa	-0.5869304
124	0xef	-0.11602113
125	0x18	0.16379453
126	0xf4	-0.081897266
127	0xbe	-0.45043498
128	0x06	0.040948633
129	0xd2	-0.31393954
130	0xcf	-0.33441386
131	0xcb	-0.36171293
132	0xe8	-0.16379453
133	0x00	0.0
134	0xe2	-0.20474318
135	0x20	0.21839271
136	0x1a	0.17744409
137	0xe1	-0.21156794
138	0x05	0.03412386
139	0xb0	-0.54598176
140	0xfe	-0.013649545
141	0xb8	-0.4913836
142	0xc4	-0.40948635
143	0xc4	-0.40948635
144	0xc7	-0.389012
145	0x1e	0.20474318
146	0x02	0.013649545
147	0x0c	0.081897266
148	0x30	0.32758906
149	0xab	-0.58010566
150	0x23	0.23886703
151	0x22	0.23204225
152	0x10	0.10919636
153	0x18	0.16379453
154	0xc1	-0.42996067
155	0xbd	-0.45725974
156	0x21	0.22521749
157	0x04	0.02729909
158	0x1d	0.1979184
159	0xe3	-0.1979184
160	0xe8	-0.16379453
161	0x1f	0.21156794
162	0xd2	-0.31393954
163	0xd1	-0.3207643
164	0xbc	-0.4640845
165	0xe4	-0.19109362
166	0xe1	-0.21156794
167	0xb6	-0.50503314
168	0xd2	-0.31393954
169	0x24	0.2456918
170	0x1c	0.19109362
171	0x0f	0.10237159
172	0x28	0.27299088
173	0xd9	-0.26616612
174	0xbf	-0.4436102
175	0xc1	-0.42996067
176	0x1d	0.1979184
177	0xc4	-0.40948635
178	0x2b	0.2934652
179	0xe6	-0.17744409
180	0x0a	0.06824772
181	0xb3	-0.52550745
182	0x07	0.047773406
183	0x32	0.34123862
184	0x0e	0.09554681
185	0x1e	0.20474318
186	0xbb	-0.4709093
187	0xf1	-0.10237159
188	0xdd	-0.23886703
189	0xc3	-0.41631112
190	0xb7	-0.49820837
191	0x26	0.25934136
192	0xdd	-0.23886703
193	0x13	0.12967068
194	0x0a	0.06824772
195	0x0c	0.081897266
196	0x09	0.06142295
197	0x0e	0.09554681
198	0xb6	-0.50503314
199	0x0f	0.10237159
200	0xe4	-0.19109362
201	0xbf	-0.4436102
202	0x1d	0.1979184
203	0x0b	0.0750725
204	0x20	0.21839271
205	0xa5	-0.6210543
206	0x09	0.06142295
207	0x06	0.040948633
208	0xe9	-0.15696977
209	0xb9	-0.48455885
210	0xa6	-0.6142295
211	0x01	0.0068247723
212	0xb7	-0.49820837
213	0xef	-0.11602113
214	0x26	0.25934136
215	0x14	0.13649544
216	0xcd	-0.34806338
217	0xec	-0.13649544
218	0x1e	0.20474318
219	0xe7	-0.17061931
220	0x0e	0.09554681
221	0x07	0.047773406
222	0x06	0.040948633
223	0xdf	-0.22521749
224	0x28	0.27299088
225	0x23	0.23886703
226	0x01	0.0068247723
227	0x22	0.23204225
228	0xa5	-0.6210543
229	0xb3	-0.52550745
230	0x31	0.33441386
231	0xd7	-0.27981567
232	0xa3	-0.6347038
233	0x17	0.15696977
234	0x1b	0.18426885
235	0xe1	-0.21156794
236	0xef	-0.11602113
237	0xa3	-0.6347038
238	0xe2	-0.20474318
239	0xfd	-0.020474317
240	0x15	0.14332022
241	0xd4	-0.30029
242	0x13	0.12967068
243	0xdf	-0.22521749
244	0x0a	0.06824772
245	0x0a	0.06824772
246	0x09	0.06142295
247	0x0b	0.0750725
248	0x2c	0.30029
249	0xa8	-0.60058
250	0xff	-0.0068247723
251	0x1e	0.20474318
252	0x00	0.0
253	0xae	-0.55963135
254	0xfd	-0.020474317
255	0xc8	-0.38218725
