model.tflite (tflite, 30712 bytes, 6 tensors)

model/dense_1/BiasAdd/ReadVariableOp f4 [64]
0	0x3da5cf20	0.080961466
1	0x3d019584	0.03163673
2	0x3d891883	0.06694128
3	0x3d9844df	0.07435011
4	0x3d64bd1a	0.055844404
5	0x3d8a4004	0.06750491
6	0x3cc13684	0.023585565
7	0x3d8765af	0.066111915
8	0x3c304e02	0.010760786
9	0x3d210599	0.03931198
10	0x3cecf97d	0.028927559
11	0x3d841984	0.06450179
12	0x3d8de17d	0.06927774
13	0x3c04d47e	0.008107303
14	0x3cff29a3	0.031147784
15	0xbca7ca47	-0.020482196
16	0x3d71a53d	0.058995474
17	0x3ca4d451	0.020120772
18	0x3c906ba9	0.017629461
19	0x3c7e326c	0.015514951
20	0x3da1089a	0.07862969
21	0x3cece00a	0.028915424
22	0x3d437283	0.04771663
23	0x3d53283d	0.051552046
24	0x3da64040	0.081177235
25	0x3d50173a	0.0508034
26	0x3c4db0ca	0.012554357
27	0x3c9d0f1e	0.019172247
28	0x3d083f00	0.033263206
29	0x3cadce4c	0.021216534
30	0x3d246dc4	0.040143743
31	0x3d86c57b	0.06580635
32	0x3d5a0ddb	0.05323587
33	0x3d3fc07f	0.046814438
34	0x3d6039ef	0.05474275
35	0x3d7f320d	0.06230359
36	0x3dafe300	0.08588219
37	0xbcca5fb3	-0.024703836
38	0x3da4939c	0.08035967
39	0x3d66bbaa	0.056331314
40	0x3d968e66	0.07351379
41	0x3cd94db2	0.026526306
42	0x3dafd0df	0.08584761
43	0x3d0f7b78	0.03502986
44	0x3da3ab3f	0.07991647
45	0x3d17a8c6	0.03702619
46	0x3d89967f	0.06718158
47	0x3d532d43	0.051556837
48	0x3d8b9c17	0.06816881
49	0x3d17e37e	0.037082188
50	0x3cefa147	0.029251708
51	0x3d954929	0.07289345
52	0x3d9839a5	0.0743287
53	0x3d8e5570	0.0694989
54	0x3d917087	0.07101541
55	0x3d5cfb4d	0.053950597
56	0x3da33d32	0.079706565
57	0x3ccd5d96	0.02506904
58	0x3d90faa0	0.07079053
59	0x3d6e0d7d	0.058118332
60	0x3cceef16	0.02526049
61	0x3d7c8d23	0.061658036
62	0x3d6c5d17	0.057705965
63	0x3d549abc	0.05190538

model/dense_2/BiasAdd/ReadVariableOp f4 [41]
0	0x3c5ce22a	0.013481656
1	0x3cda2171	0.026627274
2	0x3c7af09c	0.015316155
3	0x3c35361c	0.011060264
4	0x3c0a41c3	0.00843853
5	0xbca1cf52	-0.019752178
6	0xbd4cf86c	-0.0500416
7	0x3a92ac31	0.0011190233
8	0x3a19d978	0.0005868892
9	0x3c9e6c39	0.019338714
10	0xbcf50b71	-0.029912682
11	0x3d12e65c	0.03586422
12	0xbd19a3b0	-0.03750962
13	0xbcba1b16	-0.022717994
14	0xbd50b573	-0.050954293
15	0xbd3cb024	-0.04606642
16	0xbd016b87	-0.031596687
17	0xbc6c3ccb	-0.014418791
18	0xbd667644	-0.05626513
19	0x3c1904c9	0.00933952
20	0xbb463dcd	-0.0030249238
21	0x3d584260	0.052797675
22	0x3cfcf232	0.030877206
23	0x3cb112a1	0.021615328
24	0xbce99061	-0.028511228
25	0x3c615415	0.013752957
26	0xbd009638	-0.03139326
27	0x3cce815f	0.025208173
28	0xbce8ff66	-0.028442096
29	0x3c90a7a1	0.017658057
30	0x3ca6c429	0.020357208
31	0x3b953036	0.0045528663
32	0x3baab606	0.005209687
33	0x3c3f5030	0.011676833
34	0x3cbe2dfe	0.02321529
35	0xbcaeb2db	-0.02132552
36	0x3be0abcf	0.0068564187
37	0xbb1713f5	-0.0023052667
38	0x3c72bf00	0.014816046
39	0x3cb87824	0.022518225
40	0x39bd6e30	0.00036130985

model/dense/BiasAdd/ReadVariableOp f4 [128]
0	0x3de2dfae	0.1107782
1	0x3e1b5748	0.15170014
2	0x3d95d285	0.07315544
3	0x3e1a79a0	0.15085459
4	0x3da5f2a5	0.081029214
5	0x3de596c9	0.112104006
6	0x3dd40391	0.10352243
7	0x3db73cbd	0.08947132
8	0x3e18a260	0.14905691
9	0x3d056673	0.032568406
10	0x3d656e3f	0.056013342
11	0x3d81ab5b	0.063315116
12	0x3e145341	0.14484884
13	0x3db523b7	0.08844703
14	0x3e04a9f4	0.12955457
15	0x3dbdbc55	0.09264437
16	0x3e0736e7	0.13204537
17	0x3dd25e68	0.10271913
18	0x3d86440d	0.065559484
19	0x3e1b9fe0	0.15197706
20	0x3e2338aa	0.15939584
21	0x3de181a1	0.11011053
22	0x3e04b7d2	0.12960747
23	0x3e056619	0.13027228
24	0x3e0afe90	0.1357367
25	0x3de1ad2f	0.1101936
26	0x3e331f7b	0.17492478
27	0x3e2187f0	0.15774512
28	0x3e12c57d	0.14333148
29	0x3db921f1	0.09039677
30	0x3e0eaf21	0.13933994
31	0x3dcfc38e	0.10144721
32	0x3e34c0f1	0.17651726
33	0x3e0e279f	0.13882302
34	0x3e15b6c5	0.14620502
35	0x3e266c2d	0.16252203
36	0x3e14bfbb	0.14526264
37	0x3df7eb22	0.12105395
38	0x3e220e9b	0.15825884
39	0x3e044ab9	0.1291913
40	0x3deec136	0.11657946
41	0x3e1dfe6b	0.15429084
42	0x3e2a6f36	0.16643986
43	0x3dcc87ad	0.099868156
44	0x3da96c5a	0.082726195
45	0x3e163bc8	0.14671242
46	0x3e051756	0.12997183
47	0x3e1631a4	0.14667374
48	0x3ddf7e8d	0.109128095
49	0x3dfae4b0	0.1225065
50	0x3daf3e94	0.08556858
51	0x3e15c0e6	0.14624366
52	0x3e1498fe	0.14511487
53	0x3dbe5802	0.0929413
54	0x3dc49ec1	0.096005924
55	0x3ddc419e	0.10754703
56	0x3e085da6	0.13316974
57	0x3df29235	0.11844293
58	0x3e1b6a5f	0.15177296
59	0x3dcc2120	0.099672556
60	0x3e01d2ef	0.12678121
61	0x3e28c4de	0.16481349
62	0x3e0334d2	0.12813118
63	0x3e096f30	0.13421321
64	0x3e112dca	0.14177623
65	0x3e0f1606	0.13973245
66	0x3e0c7966	0.13718185
67	0x3e175fa8	0.14782584
68	0x3dea412c	0.11438212
69	0x3d9f8e3e	0.077908024
70	0x3df963ef	0.12177264
71	0x3e131cce	0.14366457
72	0x3dce1b7d	0.10063837
73	0x3e08f077	0.1337298
74	0x3df2681a	0.11836262
75	0x3de2b023	0.11068752
76	0x3e071011	0.13189723
77	0x3d95d0e6	0.07315235
78	0x3e33fdf8	0.1757735
79	0x3e0b2938	0.13589942
80	0x3e2c8864	0.16848904
81	0x3e0da434	0.1383217
82	0x3e03569d	0.12826009
83	0x3e15f9b8	0.14646041
84	0x3dcecea2	0.10098006
85	0x3df937a2	0.12168814
86	0x3e2f8f2a	0.17144457
87	0x3dbcb0a1	0.09213377
88	0x3daf54ab	0.08561071
89	0x3e2b80e6	0.1674839
90	0x3dc08a41	0.0940137
91	0x3ddfa43c	0.10919997
92	0x3df2bf5f	0.118529074
93	0x3e05fdeb	0.13085143
94	0x3e082a78	0.1329745
95	0x3e04c3dc	0.1296534
96	0x3e1a6ba2	0.15080121
97	0x3d0eb2e6	0.03483858
98	0x3e18ed0d	0.14934178
99	0x3dde7014	0.10861221
100	0x3dfbb4e3	0.12290361
101	0x3e10ece5	0.14152868
102	0x3df71c74	0.12065974
103	0x3e0413dc	0.12898201
104	0x3e16c160	0.14722204
105	0x3e07b9da	0.1325449
106	0x3e0ea569	0.13930286
107	0x3e1d3e32	0.15355757
108	0x3daa067d	0.08302019
109	0x3e02a6ae	0.12758896
110	0x3e08d49a	0.13362351
111	0x3dd9bb36	0.10631411
112	0x3e2b4207	0.16724406
113	0x3e01da76	0.12680992
114	0x3e343d44	0.17601496
115	0x3e1f6e07	0.15569316
116	0x3e1489b9	0.14505662
117	0x3e0e2938	0.13882911
118	0x3df1f06b	0.11813434
119	0x3dfa81c1	0.1223178
120	0x3e159bd8	0.14610231
121	0x3e124ba8	0.14286673
122	0x3e0ab72a	0.13546434
123	0x3dd0add0	0.10189402
124	0x3e2476d0	0.16060948
125	0x3e110bba	0.1416463
126	0x3e046063	0.12927394
127	0x3e224f47	0.15850554

model/dense/MatMul i1 [128, 131] scale=0.0052920766 zero_point=0
0	0x02	0.010584153
1	0x08	0.042336613
2	0xe1	-0.16405438
3	0x19	0.13230191
4	0x13	0.10054946
5	0x26	0.20109892
6	0x39	0.30164838
7	0x2c	0.23285137
8	0xe6	-0.13759398
9	0x1f	0.16405438
10	0x27	0.20639099
11	0x00	0.0
12	0x32	0.26460382
13	0x0b	0.058212843
14	0x23	0.18522269
15	0x25	0.19580683
16	0x1b	0.14288607
17	0x28	0.21168306
18	0x26	0.20109892
19	0xff	-0.0052920766
20	0x08	0.042336613
21	0xf0	-0.084673226
22	0x0b	0.058212843
23	0xf1	-0.07938115
24	0xd9	-0.20639099
25	0x00	0.0
26	0xd4	-0.23285137
27	0xe3	-0.15347022
28	0xf5	-0.058212843
29	0x03	0.01587623
30	0xeb	-0.111133605
31	0x28	0.21168306
32	0xf2	-0.07408907
33	0x32	0.26460382
34	0x1f	0.16405438
35	0x00	0.0
36	0x26	0.20109892
37	0x20	0.16934645
38	0x10	0.084673226
39	0x25	0.19580683
40	0x14	0.10584153
41	0xfb	-0.026460383
42	0xfc	-0.021168306
43	0x1a	0.13759398
44	0xd4	-0.23285137
45	0x14	0.10584153
46	0xda	-0.20109892
47	0x1e	0.1587623
48	0x10	0.084673226
49	0xda	-0.20109892
50	0x10	0.084673226
51	0xee	-0.09525738
52	0xe7	-0.13230191
53	0x07	0.037044536
54	0xe8	-0.12700984
55	0x09	0.04762869
56	0xf2	-0.07408907
57	0x0e	0.07408907
58	0xfb	-0.026460383
59	0xff	-0.0052920766
60	0xe1	-0.16405438
61	0xf3	-0.06879699
62	0x17	0.121717766
63	0x32	0.26460382
64	0xf2	-0.07408907
65	0xea	-0.116425686
66	0xee	-0.09525738
67	0xed	-0.10054946
68	0x02	0.010584153
69	0x16	0.116425686
70	0x03	0.01587623
71	0x1e	0.1587623
72	0x20	0.16934645
73	0xe0	-0.16934645
74	0x0e	0.07408907
75	0xea	-0.116425686
76	0x17	0.121717766
77	0xfd	-0.01587623
78	0x21	0.17463852
79	0x0c	0.06350492
80	0x09	0.04762869
81	0x20	0.16934645
82	0xfd	-0.01587623
83	0x01	0.0052920766
84	0x27	0.20639099
85	0xd5	-0.2275593
86	0x1d	0.15347022
87	0x04	0.021168306
88	0x04	0.021168306
89	0x03	0.01587623
90	0x15	0.111133605
91	0xef	-0.0899653
92	0xdb	-0.19580683
93	0xfe	-0.010584153
94	0xf2	-0.07408907
95	0xf3	-0.06879699
96	0x27	0.20639099
97	0x19	0.13230191
98	0xed	-0.10054946
99	0x04	0.021168306
100	0x20	0.16934645
101	0xf1	-0.07938115
102	0x29	0.21697514
103	0xeb	-0.111133605
104	0xf4	-0.06350492
105	0xee	-0.09525738
106	0xfb	-0.026460383
107	0xe2	-0.1587623
108	0x09	0.04762869
109	0x0b	0.058212843
110	0x2b	0.2275593
111	0xfe	-0.010584153
112	0xee	-0.09525738
113	0xcd	-0.2698959
114	0x25	0.19580683
115	0x10	0.084673226
116	0x15	0.111133605
117	0xfe	-0.010584153
118	0xeb	-0.111133605
119	0xf8	-0.042336613
120	0x2d	0.23814344
121	0xda	-0.20109892
122	0x09	0.04762869
123	0x01	0.0052920766
124	0x0f	0.07938115
125	0x12	0.09525738
126	0x24	0.19051476
127	0x12	0.09525738
128	0xf6	-0.052920766
129	0xed	-0.10054946
130	0xf8	-0.042336613
131	0x23	0.18522269
132	0x1e	0.1587623
133	0x0f	0.07938115
134	0x26	0.20109892
135	0xfe	-0.010584153
136	0x17	0.121717766
137	0x28	0.21168306
138	0x39	0.30164838
139	0x0e	0.07408907
140	0x03	0.01587623
141	0x07	0.037044536
142	0x05	0.026460383
143	0xfe	-0.010584153
144	0x37	0.2910642
145	0x12	0.09525738
146	0x05	0.026460383
147	0xee	-0.09525738
148	0x28	0.21168306
149	0x29	0.21697514
150	0x21	0.17463852
151	0xfd	-0.01587623
152	0xfa	-0.03175246
153	0xfa	-0.03175246
154	0x02	0.010584153
155	0x10	0.084673226
156	0x19	0.13230191
157	0xea	-0.116425686
158	0xee	-0.09525738
159	0xdb	-0.19580683
160	0xe2	-0.1587623
161	0x10	0.084673226
162	0x01	0.0052920766
163	0x0d	0.06879699
164	0x36	0.28577214
165	0xf9	-0.037044536
166	0xe2	-0.1587623
167	0xee	-0.09525738
168	0xff	-0.0052920766
169	0x0d	0.06879699
170	0x07	0.037044536
171	0x16	0.116425686
172	0xf1	-0.07938115
173	0xd3	-0.23814344
174	0x0c	0.06350492
175	0x00	0.0
176	0x04	0.021168306
177	0x09	0.04762869
178	0xe3	-0.15347022
179	0x0d	0.06879699
180	0xe7	-0.13230191
181	0xef	-0.0899653
182	0x28	0.21168306
183	0x24	0.19051476
184	0x1d	0.15347022
185	0xf7	-0.04762869
186	0x07	0.037044536
187	0x21	0.17463852
188	0x09	0.04762869
189	0x15	0.111133605
190	0x0d	0.06879699
191	0x17	0.121717766
192	0x14	0.10584153
193	0x22	0.1799306
194	0x24	0.19051476
195	0x07	0.037044536
196	0x01	0.0052920766
197	0x02	0.010584153
198	0xfa	-0.03175246
199	0xdd	-0.18522269
200	0x29	0.21697514
201	0x0e	0.07408907
202	0xfb	-0.026460383
203	0x20	0.16934645
204	0x1d	0.15347022
205	0x0d	0.06879699
206	0xdd	-0.18522269
207	0x04	0.021168306
208	0x13	0.10054946
209	0x08	0.042336613
210	0x17	0.121717766
211	0xf9	-0.037044536
212	0x18	0.12700984
213	0xef	-0.0899653
214	0x03	0.01587623
215	0xf0	-0.084673226
216	0xef	-0.0899653
217	0x26	0.20109892
218	0x07	0.037044536
219	0xf8	-0.042336613
220	0x0b	0.058212843
221	0xda	-0.20109892
222	0x01	0.0052920766
223	0xe6	-0.13759398
224	0x20	0.16934645
225	0x25	0.19580683
226	0x0a	0.052920766
227	0xdc	-0.19051476
228	0xfe	-0.010584153
229	0xeb	-0.111133605
230	0x2d	0.23814344
231	0x24	0.19051476
232	0xfd	-0.01587623
233	0x2b	0.2275593
234	0x0a	0.052920766
235	0x1c	0.14817815
236	0xd1	-0.2487276
237	0xe6	-0.13759398
238	0x06	0.03175246
239	0xd7	-0.21697514
240	0x07	0.037044536
241	0xf4	-0.06350492
242	0xd2	-0.24343553
243	0xff	-0.0052920766
244	0xfc	-0.021168306
245	0xed	-0.10054946
246	0x0f	0.07938115
247	0xea	-0.116425686
248	0xfc	-0.021168306
249	0x0b	0.058212843
250	0xec	-0.10584153
251	0x2d	0.23814344
252	0xe7	-0.13230191
253	0xec	-0.10584153
254	0xe8	-0.12700984
255	0xe5	-0.14288607

model/dense_1/MatMul i1 [64, 128] scale=0.0031590478 zero_point=0
0	0xf7	-0.02843143
1	0x40	0.20217906
2	0xb3	-0.24324667
3	0x34	0.16427049
4	0xf4	-0.037908573
5	0xc0	-0.20217906
6	0xce	-0.15795238
7	0x81	-0.40119907
8	0x2e	0.1453162
9	0x2a	0.13268001
10	0x0c	0.037908573
11	0x27	0.12320287
12	0xea	-0.06949905
13	0xe0	-0.10108953
14	0xfc	-0.012636191
15	0x20	0.10108953
16	0xf3	-0.041067623
17	0xee	-0.05686286
18	0x45	0.2179743
19	0x45	0.2179743
20	0xf6	-0.031590477
21	0xf6	-0.031590477
22	0xfb	-0.015795238
23	0xb6	-0.23376954
24	0xe4	-0.08845334
25	0x4d	0.24324667
26	0x60	0.30326858
27	0x06	0.018954286
28	0xcc	-0.16427049
29	0x36	0.17058858
30	0x1f	0.09793048
31	0x43	0.2116562
32	0xfe	-0.0063180956
33	0xce	-0.15795238
34	0xfe	-0.0063180956
35	0xdd	-0.110566676
36	0x0a	0.031590477
37	0xe9	-0.0726581
38	0x1c	0.08845334
39	0x92	-0.34749526
40	0xc0	-0.20217906
41	0x62	0.30958667
42	0x64	0.31590477
43	0x02	0.0063180956
44	0x05	0.015795238
45	0xdb	-0.11688477
46	0xde	-0.10740762
47	0x13	0.060021907
48	0x3a	0.18322477
49	0xeb	-0.06634001
50	0x47	0.2242924
51	0x14	0.06318095
52	0x13	0.060021907
53	0x13	0.060021907
54	0x17	0.0726581
55	0x32	0.15795238
56	0x1e	0.09477144
57	0xb6	-0.23376954
58	0x0a	0.031590477
59	0xe1	-0.09793048
60	0xeb	-0.06634001
61	0xf8	-0.025272382
62	0x52	0.2590419
63	0x18	0.075817145
64	0x00	0.0
65	0xee	-0.05686286
66	0xc8	-0.17690668
67	0x5b	0.28747335
68	0x27	0.12320287
69	0xde	-0.10740762
70	0x05	0.015795238
71	0xbc	-0.21481524
72	0x25	0.11688477
73	0x48	0.22745144
74	0x16	0.06949905
75	0x49	0.23061049
76	0x06	0.018954286
77	0xa7	-0.28115526
78	0x18	0.075817145
79	0x43	0.2116562
80	0x4d	0.24324667
81	0x0c	0.037908573
82	0x02	0.0063180956
83	0x46	0.22113335
84	0xf8	-0.025272382
85	0x43	0.2116562
86	0x39	0.18006572
87	0xfd	-0.009477143
88	0x1c	0.08845334
89	0x5a	0.2843143
90	0x37	0.17374763
91	0xde	-0.10740762
92	0x13	0.060021907
93	0x1c	0.08845334
94	0x5c	0.2906324
95	0x46	0.22113335
96	0xa6	-0.2843143
97	0xcb	-0.16742954
98	0xb6	-0.23376954
99	0xd9	-0.12320287
100	0x1e	0.09477144
101	0x5b	0.28747335
102	0x57	0.27483717
103	0x2c	0.1389981
104	0xe3	-0.09161238
105	0xd3	-0.14215715
106	0xd6	-0.13268001
107	0xe4	-0.08845334
108	0x06	0.018954286
109	0x2b	0.13583906
110	0xc9	-0.17374763
111	0x03	0.009477143
112	0x34	0.16427049
113	0xf5	-0.034749527
114	0xfa	-0.018954286
115	0xe7	-0.07897619
116	0xb7	-0.23061049
117	0x24	0.11372572
118	0x03	0.009477143
119	0x77	0.3759267
120	0x06	0.018954286
121	0x45	0.2179743
122	0xe8	-0.075817145
123	0xea	-0.06949905
124	0x5c	0.2906324
125	0x09	0.02843143
126	0xc4	-0.18954287
127	0xba	-0.22113335
128	0xe1	-0.09793048
129	0x44	0.21481524
130	0x03	0.009477143
131	0x6f	0.3506543
132	0x2c	0.1389981
133	0xf4	-0.037908573
134	0xf2	-0.04422667
135	0x25	0.11688477
136	0xd8	-0.1263619
137	0xc6	-0.18322477
138	0x44	0.21481524
139	0x28	0.1263619
140	0x2e	0.1453162
141	0x03	0.009477143
142	0xf4	-0.037908573
143	0x38	0.17690668
144	0xe9	-0.0726581
145	0xf0	-0.050544765
146	0xae	-0.2590419
147	0xd8	-0.1263619
148	0x32	0.15795238
149	0x11	0.05370381
150	0x10	0.050544765
151	0x15	0.06634001
152	0x50	0.2527238
153	0x18	0.075817145
154	0x06	0.018954286
155	0x18	0.075817145
156	0x23	0.110566676
157	0xd2	-0.1453162
158	0x0a	0.031590477
159	0x04	0.012636191
160	0xde	-0.10740762
161	0xb6	-0.23376954
162	0xed	-0.060021907
163	0xd6	-0.13268001
164	0xf1	-0.04738572
165	0x25	0.11688477
166	0x1c	0.08845334
167	0x16	0.06949905
168	0xea	-0.06949905
169	0x55	0.26851907
170	0x01	0.0031590478
171	0xfc	-0.012636191
172	0x1a	0.082135245
173	0xc7	-0.18006572
174	0x0c	0.037908573
175	0xb8	-0.22745144
176	0xe7	-0.07897619
177	0x14	0.06318095
178	0xe8	-0.075817145
179	0xc4	-0.18954287
180	0x3e	0.19586097
181	0x07	0.022113334
182	0xc7	-0.18006572
183	0xda	-0.120043814
184	0x05	0.015795238
185	0xb8	-0.22745144
186	0xf8	-0.025272382
187	0xf7	-0.02843143
188	0xe7	-0.07897619
189	0x22	0.10740762
190	0xf7	-0.02843143
191	0xbf	-0.2053381
192	0xf0	-0.050544765
193	0x2a	0.13268001
194	0xd9	-0.12320287
195	0x14	0.06318095
196	0xef	-0.05370381
197	0xfd	-0.009477143
198	0x38	0.17690668
199	0x03	0.009477143
200	0x02	0.0063180956
201	0x12	0.05686286
202	0xc6	-0.18322477
203	0xab	-0.26851907
204	0xda	-0.120043814
205	0x21	0.104248576
206	0xf5	-0.034749527
207	0x07	0.022113334
208	0x47	0.2242924
209	0x19	0.07897619
210	0x1b	0.08529429
211	0xfb	-0.015795238
212	0xf2	-0.04422667
213	0x09	0.02843143
214	0xd8	-0.1263619
215	0xd2	-0.1453162
216	0x3f	0.19902001
217	0xdf	-0.104248576
218	0x06	0.018954286
219	0xfd	-0.009477143
220	0x4f	0.24956478
221	0xac	-0.26536003
222	0x3c	0.18954287
223	0x1c	0.08845334
224	0xd2	-0.1453162
225	0x4c	0.24008763
226	0xf9	-0.022113334
227	0x49	0.23061049
228	0xcd	-0.16111144
229	0xd9	-0.12320287
230	0x10	0.050544765
231	0x2b	0.13583906
232	0xf0	-0.050544765
233	0x02	0.0063180956
234	0xdf	-0.104248576
235	0x36	0.17058858
236	0xda	-0.120043814
237	0x03	0.009477143
238	0x07	0.022113334
239	0x22	0.10740762
240	0x1c	0.08845334
241	0x56	0.27167812
242	0x53	0.26220098
243	0xff	-0.0031590478
244	0xcf	-0.15479334
245	0x04	0.012636191
246	0x4b	0.23692858
247	0x14	0.06318095
248	0xeb	-0.06634001
249	0x1a	0.082135245
250	0x34	0.16427049
251	0x54	0.26536003
252	0xe0	-0.10108953
253	0x50	0.2527238
254	0xa0	-0.30326858
255	0x03	0.009477143

model/dense_2/MatMul i1 [41, 64] scale=0.0039156033 zero_point=0
0	0x82	-0.493366
1	0x46	0.27409223
2	0x21	0.12921491
3	0x09	0.03524043
4	0xa0	-0.3758979
5	0xca	-0.21144257
6	0xd3	-0.17620215
7	0xcb	-0.20752697
8	0xad	-0.32499507
9	0xdb	-0.14487731
10	0x38	0.21927378
11	0xa0	-0.3758979
12	0xf7	-0.03524043
13	0x43	0.26234543
14	0x04	0.015662413
15	0xef	-0.06656525
16	0x3a	0.22710499
17	0x0e	0.054818444
18	0x23	0.13704611
19	0xf3	-0.050902843
20	0xfb	-0.019578017
21	0x30	0.18794896
22	0x8a	-0.4620412
23	0x2f	0.18403335
24	0x3a	0.22710499
25	0x29	0.16053973
26	0xeb	-0.08222767
27	0xda	-0.14879292
28	0x91	-0.43463197
29	0xc0	-0.2505986
30	0xa4	-0.3602355
31	0x16	0.08614327
32	0x50	0.31324828
33	0xc1	-0.246683
34	0xd1	-0.18403335
35	0xe7	-0.09789008
36	0xed	-0.07439646
37	0x17	0.09005888
38	0xf5	-0.043071635
39	0x42	0.25842983
40	0x9e	-0.38372913
41	0xb9	-0.27800784
42	0xc0	-0.2505986
43	0xa5	-0.3563199
44	0x43	0.26234543
45	0x9d	-0.38764474
46	0x3e	0.24276741
47	0xea	-0.08614327
48	0x9e	-0.38372913
49	0x2e	0.18011776
50	0x19	0.09789008
51	0xd9	-0.15270853
52	0x16	0.08614327
53	0xfd	-0.01174681
54	0x21	0.12921491
55	0xa0	-0.3758979
56	0x1f	0.121383704
57	0x50	0.31324828
58	0xeb	-0.08222767
59	0x31	0.19186457
60	0x96	-0.41505393
61	0xfd	-0.01174681
62	0xdc	-0.14096172
63	0x3e	0.24276741
64	0x11	0.06656525
65	0x04	0.015662413
66	0x2d	0.17620215
67	0x01	0.0039156033
68	0xd2	-0.18011776
69	0x53	0.32499507
70	0xde	-0.1331305
71	0xa6	-0.3524043
72	0x03	0.01174681
73	0x4d	0.30150145
74	0xa1	-0.3719823
75	0x0d	0.050902843
76	0x41	0.25451422
77	0xa7	-0.3484887
78	0xb9	-0.27800784
79	0xe3	-0.113552496
80	0x30	0.18794896
81	0xaa	-0.3367419
82	0xa1	-0.3719823
83	0xbf	-0.25451422
84	0x18	0.09397448
85	0xec	-0.07831207
86	0xb5	-0.29367024
87	0xc7	-0.22318938
88	0x1b	0.10572129
89	0x1b	0.10572129
90	0x13	0.07439646
91	0xc5	-0.2310206
92	0x29	0.16053973
93	0x11	0.06656525
94	0xac	-0.32891068
95	0x2b	0.16837095
96	0xe7	-0.09789008
97	0xa2	-0.3680667
98	0xdf	-0.12921491
99	0xb3	-0.30150145
100	0x35	0.20752697
101	0xcb	-0.20752697
102	0x89	-0.46595678
103	0xaf	-0.31716385
104	0x07	0.027409222
105	0x92	-0.43071637
106	0x93	-0.42680076
107	0x21	0.12921491
108	0x8e	-0.44637877
109	0x89	-0.46595678
110	0x1e	0.1174681
111	0xed	-0.07439646
112	0xf9	-0.027409222
113	0xa7	-0.3484887
114	0x4b	0.29367024
115	0x43	0.26234543
116	0x42	0.25842983
117	0x3d	0.2388518
118	0x41	0.25451422
119	0xfa	-0.02349362
120	0xf0	-0.06264965
121	0x3f	0.246683
122	0x59	0.3484887
123	0x0b	0.043071635
124	0xb2	-0.30541706
125	0xaa	-0.3367419
126	0xec	-0.07831207
127	0x04	0.015662413
128	0x97	-0.41113836
129	0x15	0.08222767
130	0x51	0.31716385
131	0x1f	0.121383704
132	0x03	0.01174681
133	0xa8	-0.34457308
134	0x19	0.09789008
135	0xd6	-0.16445534
136	0xd2	-0.18011776
137	0x02	0.007831207
138	0x0e	0.054818444
139	0xe3	-0.113552496
140	0xb0	-0.31324828
141	0xb8	-0.28192344
142	0x9f	-0.37981352
143	0xdf	-0.12921491
144	0xc8	-0.21927378
145	0x15	0.08222767
146	0x39	0.22318938
147	0xc4	-0.2349362
148	0xf7	-0.03524043
149	0x98	-0.40722275
150	0x22	0.1331305
151	0xa2	-0.3680667
152	0x97	-0.41113836
153	0xbe	-0.25842983
154	0x3f	0.246683
155	0x2f	0.18403335
156	0x2e	0.18011776
157	0x41	0.25451422
158	0x30	0.18794896
159	0xda	-0.14879292
160	0x02	0.007831207
161	0x01	0.0039156033
162	0x47	0.27800784
163	0xa8	-0.34457308
164	0x46	0.27409223
165	0xf3	-0.050902843
166	0x20	0.1252993
167	0x45	0.27017662
168	0x34	0.20361137
169	0xc1	-0.246683
170	0x33	0.19969577
171	0xc8	-0.21927378
172	0xd4	-0.17228654
173	0xec	-0.07831207
174	0xe0	-0.1252993
175	0xc7	-0.22318938
176	0x9b	-0.39547592
177	0xfd	-0.01174681
178	0x12	0.07048086
179	0x00	0.0
180	0x1c	0.10963689
181	0x9b	-0.39547592
182	0x38	0.21927378
183	0xff	-0.0039156033
184	0xa1	-0.3719823
185	0xc9	-0.21535818
186	0x3a	0.22710499
187	0xa9	-0.34065747
188	0xae	-0.32107946
189	0x4a	0.28975463
190	0xce	-0.19578016
191	0x05	0.019578017
192	0xf6	-0.039156035
193	0xa9	-0.34065747
194	0x3a	0.22710499
195	0x56	0.3367419
196	0xc1	-0.246683
197	0xeb	-0.08222767
198	0xa3	-0.3641511
199	0x35	0.20752697
200	0xde	-0.1331305
201	0x4a	0.28975463
202	0xcc	-0.20361137
203	0xa4	-0.3602355
204	0x32	0.19578016
205	0x40	0.2505986
206	0x04	0.015662413
207	0xbf	-0.25451422
208	0x01	0.0039156033
209	0x3f	0.246683
210	0x2c	0.17228654
211	0xb5	-0.29367024
212	0xc4	-0.2349362
213	0xca	-0.21144257
214	0xab	-0.3328263
215	0x04	0.015662413
216	0x05	0.019578017
217	0xb7	-0.28583905
218	0xec	-0.07831207
219	0x46	0.27409223
220	0xf5	-0.043071635
221	0xef	-0.06656525
222	0x95	-0.41896954
223	0xd6	-0.16445534
224	0x4d	0.30150145
225	0x4b	0.29367024
226	0xc9	-0.21535818
227	0xe3	-0.113552496
228	0xf5	-0.043071635
229	0xc3	-0.2388518
230	0x40	0.2505986
231	0x01	0.0039156033
232	0xb9	-0.27800784
233	0xdc	-0.14096172
234	0xc2	-0.24276741
235	0x05	0.019578017
236	0xd0	-0.18794896
237	0x9a	-0.39939153
238	0xdb	-0.14487731
239	0xf2	-0.054818444
240	0xd8	-0.15662414
241	0x0a	0.039156035
242	0x3e	0.24276741
243	0x28	0.15662414
244	0xb2	-0.30541706
245	0x9c	-0.39156032
246	0x39	0.22318938
247	0xc6	-0.22710499
248	0x03	0.01174681
249	0x91	-0.43463197
250	0xec	-0.07831207
251	0x93	-0.42680076
252	0xf1	-0.05873405
253	0x4d	0.30150145
254	0x18	0.09397448
255	0xea	-0.08614327
